saved_models/lstm_disturbance_4hz.pth (torch, 212708 bytes, 10 tensors)

lstm.weight_ih_l0 f4 [256, 9]
000000 51 df 37 bd ce ad f2 3d f6 48 60 bd f1 7b 14 be
       -0.044890705 0.11849557 -0.05475708 -0.14500405
000010 f8 30 05 be ac 45 08 3f 91 ee 01 bd e1 30 70 3d
       -0.13006961 0.5323131 -0.031721655 0.058640365
000020 8d 3e 56 3e b9 bb 64 3a 94 f1 1f 3e b8 0a 38 be
       0.20922299 0.00087254826 0.15619498 -0.17972839
000030 79 aa cc 3c 48 a1 96 3d a9 93 b0 3d 51 95 2b 3b
       0.024983631 0.07354981 0.08621914 0.0026181529
000040 92 fa 27 bc 3a 52 c7 3b 2f b2 10 3d 04 c9 36 bd
       -0.010252612 0.0060828 0.03532618 -0.044625297
000050 d9 6e 4a bd 15 fa 49 be 0c 8e dc bd cd 44 b1 3e
       -0.04942212 -0.19724305 -0.10769281 0.34622803
000060 d1 c2 7d bd 81 35 ae 3d 58 c8 e1 3d e7 a3 e2 bd
       -0.06195337 0.08506299 0.11024541 -0.11066418
000070 78 6b e0 3d ee 90 88 be 01 08 0a 3e ef 9c a5 3c
       0.10957998 -0.26673073 0.13479616 0.020216433
000080 6d fa e6 bd 33 ab 70 3d f2 f2 06 be b3 a7 0c bb
       -0.11278234 0.05875702 -0.13178614 -0.0021462261
000090 07 36 77 be df 38 00 3e d3 21 77 3e 50 ee c0 be
       -0.24141704 0.12521695 0.24133997 -0.37681818
0000a0 7f 92 07 3e 3c 8d 2b 3e d5 d3 d3 bc a1 91 af 3d
       0.13239478 0.16753095 -0.025857845 0.085726984
0000b0 58 0a 22 be d3 5f e9 bd d6 bb 39 bd e7 a9 36 3d
       -0.15824258 -0.1139523 -0.04534515 0.044595625
0000c0 d5 97 4f 3d cc bc f8 bc 4b e8 96 bd 37 45 11 3e
       0.050681908 -0.030363463 -0.07368525 0.1418656
0000d0 62 5b 4a be 6f 9d 51 3d 60 59 23 bb 05 4e df 3d
       -0.19761422 0.05117553 -0.0024925098 0.10903553
0000e0 53 47 b2 be 6a 2a ae bc 08 f7 78 3e cc e0 34 3e
       -0.3482004 -0.021260459 0.24312985 0.17663878
0000f0 ef da b3 3d 11 7f 38 3e 65 2f 32 3d 48 f0 29 3d
       0.08781993 0.18017222 0.04350223 0.041488916
000100 3d 4c d2 bd 24 43 49 3e d8 8b 6b bd 7b 52 21 3d
       -0.102684475 0.19654518 -0.057506412 0.0393853
000110 af 88 92 3e 29 33 c2 bc 8b fa 22 3e 21 4b 0c 3f
       0.28619906 -0.023706036 0.15915887 0.5480214
000120 68 95 66 3c 2b 0e 4e 3e 14 df 51 3f e8 2b 54 3e
       0.014073707 0.20122592 0.81981015 0.20719874
000130 e8 9d 71 3e b3 52 d7 3d 54 fc 05 be 2b 4d 92 3d
       0.23595393 0.105138205 -0.13084537 0.07143625
000140 98 4d c3 3e b7 1a 2f 3e e0 f3 42 bd 37 b9 c2 3f
       0.38145137 0.17100035 -0.04759586 1.5212773
000150 07 47 a9 3d 30 fb 20 3c 76 a8 ba bd 92 9f a2 3d
       0.082655005 0.009825513 -0.091141626 0.07940592
000160 52 67 df bd ed d1 ca 3e 52 76 da bd df 6e b1 bc
       -0.10908379 0.39613286 -0.10667099 -0.021659313
000170 9c 41 3e 3e 3b 25 46 3d 36 aa 34 be 46 01 49 3e
       0.18579715 0.04837535 -0.17643055 0.19629392
000180 4c f8 1e 3c b8 67 0d 3e 38 2c 0a be 2e ac e2 bc
       0.009702753 0.13809097 -0.1349343 -0.027669992
000190 72 c9 44 bd b7 ff 10 be 19 57 01 3e c1 72 15 bd
       -0.048043676 -0.14160047 0.12630881 -0.03648639
0001a0 e9 1f 95 3e 4b 51 ba bc f3 b8 b4 bd 90 67 c5 3e
       0.29125908 -0.022743842 -0.08824339 0.38555574
0001b0 39 fc 9b 3d e4 86 a2 bd 36 69 ca be 1c ba 01 be
       0.07616467 -0.079358846 -0.39533395 -0.12668651
0001c0 3f 75 45 3d 03 79 01 3d 94 f3 71 bd 70 4d 08 3e
       0.048207518 0.031609546 -0.059070185 0.1331079
0001d0 b6 9e b5 be eb 64 a3 bd e4 9d 44 3e b1 da 57 3f
       -0.3547265 -0.07978233 0.19200855 0.8431807
0001e0 fc b7 0f be fa fe 9f 3c a0 0d 36 3e 11 27 75 b9
       -0.14035028 0.019530762 0.17778635 -0.00023379574
0001f0 0d b4 46 be 24 73 5c be 5e 7a 30 3e 5e dc 3a be
       -0.19404621 -0.21528298 0.1723418 -0.18248126
000200 eb 0d 3c bc ab 2f 99 3c 21 a8 bb bb d6 5f c0 3d
       -0.011477928 0.018699488 -0.0057268296 0.09393279
000210 93 ae c8 bd 6a c1 64 3d cd 43 ec bd e3 87 0d 3d
       -0.097989224 0.055848517 -0.115363695 0.03455342
000220 b9 ab 9a 3d e1 df 76 3f cb 06 73 3d 48 53 71 3d
       0.07552285 0.9643536 0.05933265 0.058917314
000230 55 6e 0d 3c 2f c9 11 3e 35 3f be 3d 92 4d ad 3e
       0.008632262 0.14236902 0.092893995 0.33848244
000240 16 4b 1e 3e 78 5e dc 3c 98 2e 1b 3f d1 4e 46 3e
       0.1545833 0.026900515 0.6061797 0.19366004
000250 0b dd 7f be f3 ec 9c 3e 60 85 84 3c be 41 94 bd
       -0.24986665 0.30649528 0.01617688 -0.07239102
000260 74 df 5b be a3 2e a2 3d bf 5e 82 be 37 40 c5 3f
       -0.2147196 0.079190515 -0.2546291 1.5410222
000270 de 85 8c bc 55 27 39 be 71 44 c6 3d 99 d2 05 3e
       -0.017153677 -0.1808141 0.09681023 0.13068618
000280 d6 ce 71 bd b7 99 3d bf 59 3a 80 bd b1 00 47 3b
       -0.059035145 -0.74062675 -0.06261129 0.0030365402
000290 ee cb 42 3c 22 cc 9d 3d 5d 22 8f be 62 51 96 3e
       0.011889441 0.07704951 -0.27955905 0.29358965
0002a0 8c 64 f3 bd 7a 38 20 3c 17 01 5e bd e6 69 0e be
       -0.11884412 0.00977909 -0.054200258 -0.13907585
0002b0 5a 0a 58 3d 5d 06 a6 3f 47 54 dc 3d 5f d5 09 bd
       0.052744247 1.2970692 0.10758262 -0.033650752
0002c0 0d 23 75 3d 4b c9 8b 3d 79 82 60 be 55 ed de 3e
       0.05984788 0.06825503 -0.21924771 0.43540445
0002d0 fa 40 b4 3d 07 f7 ca bd 81 e9 44 3d 05 17 d1 3d
       0.08801456 -0.09910398 0.04807425 0.10209469
0002e0 b8 1c 58 3e 83 d6 26 3e 53 8e 17 bd d0 3a b7 bc
       0.21104705 0.16292767 -0.037000965 -0.022366911
0002f0 5d 32 9e 3e 5e bb af bd da e5 a9 3c d8 82 23 be
       0.308978 -0.08580659 0.020739485 -0.15967882
000300 16 0e 13 3d 98 45 d6 bc 34 96 1d 3c 35 7b 0e 3e
       0.035902105 -0.026156232 0.009618331 0.13914187
000310 11 bd 23 be 29 44 00 be 69 7d c0 3c 40 c1 8c be
       -0.15990092 -0.12526001 0.0234973 -0.27491188
000320 f4 a6 09 bf 5f 0a db 3d 73 d6 04 be af d5 2f 3e
       -0.53770375 0.106953375 -0.12972431 0.17171358
000330 39 a0 92 3d 23 28 de bb 97 25 69 be 53 4a cb 3d
       0.07159466 -0.006779687 -0.22768246 0.099262856
000340 74 5b 89 be 21 49 3d 3f 6e 7f b7 bd a5 fd 23 be
       -0.26827586 0.7393971 -0.08959852 -0.16014726
000350 87 59 41 3e de c3 78 bd e9 76 21 3e 23 04 ac 3e
       0.18881808 -0.06073367 0.15768017 0.33596906
000360 8d f1 b5 be 1e 46 02 3e 07 2f bb 3e d4 da df bd
       -0.3553585 0.1272206 0.36559317 -0.1093041
000370 8f 65 5e bd 07 ef bd bc 8c 07 e2 3d b9 e0 87 bd
       -0.054296073 -0.023185266 0.11036596 -0.06634659
000380 4d d0 cf 3c a6 b3 d6 be 16 79 11 be 78 37 4f 3e
       0.02536788 -0.41933936 -0.14206347 0.20236003
000390 c3 b5 b5 be 08 00 ba bd 11 9a 39 3d 0a 60 97 bd
       -0.35490236 -0.09082037 0.045312945 -0.07391365
0003a0 30 42 0b 3c 0b cf 20 3f 1d e6 4c 3e 06 0d 35 3e
       0.008499667 0.6281592 0.20009656 0.1768075
0003b0 98 12 e7 bd 88 44 94 bd 36 e1 f2 bd 07 1d d7 3e
       -0.11282843 -0.07239634 -0.11859362 0.42014334
0003c0 54 e6 b1 bd 16 d6 77 3c ab 3f 6b 3e 32 35 72 3d
       -0.0868651 0.015126726 0.22973506 0.059132762
0003d0 eb b0 24 3e 13 76 15 3f 93 98 2d be 55 55 17 3e
       0.16083114 0.5838329 -0.16952734 0.14778645
0003e0 f6 60 1c 3e 86 4c 02 3d e7 f8 1c 3e 5d d6 ed be
       0.15271363 0.03181126 0.15329324 -0.4645261
0003f0 f9 c8 79 bd 68 b4 ec bc 76 65 97 3d ff b3 03 3d
       -0.060982678 -0.028894618 0.07392399 0.03215408

lstm.weight_hh_l0 f4 [256, 64]
000000 66 c8 79 3e 12 60 55 3e 8f 7f 5a 3d f8 61 cd bc
       0.24392852 0.20837429 0.053344306 -0.02507113
000010 d5 a3 2b 3e cf f1 88 be 45 53 e2 3d 13 77 19 3d
       0.16761716 -0.26746985 0.11051039 0.037467074
000020 39 48 c3 bb 50 22 16 3e b4 fa 43 be f5 bb ca bc
       -0.0059595373 0.14661527 -0.19138604 -0.024747828
000030 cf 0c a8 3d eb 73 d0 bd fa 2c 94 be 3c 6c 54 3e
       0.08205568 -0.101783596 -0.28940564 0.20744413
000040 c7 18 70 3d 74 f2 74 be 07 8e 8b 3d 02 c5 19 3e
       0.05861738 -0.23920614 0.06814199 0.15016559
000050 10 31 ae 3c 90 5f fb bd 1b d8 3b 3d 05 d5 fb bc
       0.02126363 -0.122740865 0.04586039 -0.030741224
000060 31 b0 e4 bd 16 8b 8e 3d 4d a4 14 3d 73 59 8c be
       -0.11166418 0.06960122 0.036289502 -0.27411994
000070 e2 a9 55 be e9 51 54 bd 8f 63 59 3d 69 0c 2b be
       -0.20865586 -0.051835928 0.053073462 -0.16703953
000080 87 91 88 3d bd 57 1f 3e fa ac 4b 3d 19 18 ca 3d
       0.06668382 0.15560813 0.04972551 0.098678775
000090 ef 17 a0 3d e6 c9 91 bc 87 e8 85 3b 99 b6 e8 3d
       0.07817065 -0.017796468 0.0040865573 0.11362953
0000a0 01 04 d2 3c 7f c2 6a bd e0 ee 10 3d 89 1c 14 be
       0.025636675 -0.057314392 0.03538406 -0.1446401
0000b0 6a 78 3c bd 99 8f 18 3d 52 12 88 3e 95 c3 81 3c
       -0.046013273 0.03724632 0.26576477 0.015840331
0000c0 89 39 17 bd 20 28 51 3c 09 1a f2 bd 88 23 fe 3d
       -0.036920104 0.012765914 -0.11821372 0.12409121
0000d0 73 e6 00 be 6c 76 2a 3e 25 cb 03 be 23 9f 15 3e
       -0.1258791 0.16646737 -0.12870462 0.14611487
0000e0 fb d4 97 bd 5b 66 c5 bd 43 f1 2f be 56 e4 13 be
       -0.0741367 -0.096386634 -0.17181878 -0.14442572
0000f0 5e 47 9e 3d c5 a9 8f 3d bd b7 dc bd 69 93 8e be
       0.07728456 0.07014803 -0.10777233 -0.2784684
000100 19 69 54 3e 97 5d 1f 3e a2 b9 3a 3e 79 f6 87 3d
       0.20743217 0.15563045 0.18234876 0.06638808
000110 bf d5 89 bd e6 90 51 be 87 9e 70 3e b0 3f 0c bc
       -0.06730222 -0.2046543 0.23497973 -0.008560106
000120 52 cf 09 3e 0a 32 90 3d 03 73 09 be 4a 0e a7 bd
       0.13457993 0.07040794 -0.1342278 -0.08157022
000130 e5 51 03 3e 9d c0 04 be c2 56 40 be c3 33 51 bd
       0.12824209 -0.12964101 -0.18783095 -0.051074754
000140 3d 9a a4 bd cd ba 68 bd 9b 4c da bb 48 76 fe bc
       -0.08037231 -0.056818772 -0.006661964 -0.03106226
000150 b4 e0 f2 bd 97 de 5e bd bf dd 93 bc ad 9b d3 3d
       -0.11859265 -0.054411497 -0.018050073 0.10332427
000160 2a 56 5e bd a9 00 41 bd 9b 41 a5 3d 60 94 c7 bd
       -0.05428139 -0.04711977 0.08069154 -0.09745097
000170 85 98 8e bd cd c2 a1 bd 66 05 c0 bd ed d4 d6 3c
       -0.069626845 -0.078984834 -0.0937603 0.026224578
000180 41 0e 90 3d de 3c 4d be 0c 9a 9f bd 03 51 2e 3e
       0.07033969 -0.2004275 -0.07793054 0.17023091
000190 17 83 98 3d 1a f3 7f be 35 81 87 3d fe a6 b5 3d
       0.074468784 -0.2499508 0.06616441 0.08869742
0001a0 9c 02 29 3e bf 84 86 bd f6 54 6a 3d 50 54 4a bd
       0.16504902 -0.06568288 0.05720993 -0.049396813
0001b0 b6 c2 0c bc 64 d0 31 3d f9 50 03 3e f9 5f c5 3d
       -0.008591345 0.043411627 0.12823857 0.09637446
0001c0 a7 98 34 3e 96 bf 06 3e 76 44 10 bc 48 76 1c 3e
       0.17636357 0.13159022 -0.008805385 0.15279496
0001d0 1e 7f 4a 3d 92 1f 13 3b e1 1d fc 3d d2 67 b8 bc
       0.049437635 0.0022449237 0.123103864 -0.022510443
0001e0 fa 28 ac bd ab 68 8f 3c 5a 32 8d 3d 26 73 83 bd
       -0.08406253 0.017505964 0.068943694 -0.06418447
0001f0 6d 7e a8 3d ba 10 b1 3c 49 b9 2f 3d 14 9d 9e bc
       0.08227239 0.021614421 0.04290131 -0.01936201
000200 3c d9 73 3e bb 14 8f 3e f4 d0 35 3d 72 92 de bd
       0.23813337 0.27945504 0.044388726 -0.10867776
000210 f0 83 03 3e 5a 2a 1d 3c 17 6e 7c 3d b5 7f 82 be
       0.12843299 0.009592617 0.061628427 -0.25488058
000220 0f f6 9c 3d e1 72 80 3e 83 a0 cb be d7 e1 74 3e
       0.076641195 0.25087646 -0.39770898 0.23914276
000230 66 2c ab 3d 28 e4 7c be a1 95 14 be 77 ce de 3e
       0.08358078 -0.2469641 -0.14510204 0.43516895
000240 41 32 15 3e 5a 3f 42 bd 32 27 1f be 7f 32 b7 3e
       0.14569952 -0.047423698 -0.15542296 0.35780713
000250 92 5c 75 3e 13 ac 25 be ec 21 1d be 35 97 41 bd
       0.23961094 -0.16178922 -0.15344971 -0.047263343
000260 39 d9 f2 bc c4 47 f3 3d 5e c7 a5 3e 7c 8c f6 be
       -0.029644595 0.118789226 0.32378668 -0.48154056
000270 d0 0c 82 bd 7d 96 ba bd 14 ab 36 3e 34 95 ce bd
       -0.063501 -0.091107346 0.17838699 -0.10087052
000280 f0 f2 23 3e ed 1a 42 be 59 cb 1c 3e 7c 46 48 3e
       0.16010642 -0.18955584 0.15311946 0.19558138
000290 e8 ad 67 3e 11 78 42 3e 9c 3a a9 be b6 91 66 3e
       0.22624934 0.18991114 -0.33052528 0.22516522
0002a0 42 f3 a7 3d 4b 36 68 be c0 b2 6a 3e 72 41 d3 bd
       0.082006946 -0.22676961 0.2291975 -0.10315217
0002b0 c0 59 86 bd 0d b3 3a bd 1a b3 86 3e b5 8d be 3e
       -0.06560087 -0.045580912 0.2630852 0.3721749
0002c0 1d 5b 75 be 3a 67 a0 3d 87 f0 b3 bc 59 68 6f bd
       -0.23960538 0.07832189 -0.021965278 -0.058449123
0002d0 b1 d0 7a be fb f4 8a 3c b9 c1 fd bd 4f 16 8f 3e
       -0.24493672 0.016962519 -0.12390465 0.27946708
0002e0 76 74 6b bd 72 9a b8 bd d3 74 c1 bd 61 01 3c be
       -0.057484113 -0.09013833 -0.094461106 -0.18359901
0002f0 e6 e6 ad 3e 67 76 09 be 1f ef 1a be 87 7e a0 be
       0.33965224 -0.13424073 -0.1513028 -0.31346533
000300 bb 0c 11 3e 89 c1 30 3e 13 0a af be ae e3 51 bd
       0.14165013 0.17261328 -0.34187374 -0.051242523
000310 0e 79 49 3d 1e dc 18 3e d3 7e 56 3e 22 04 99 be
       0.049187712 0.14927718 0.20946817 -0.29885966
000320 78 8c c1 bd 0e 1a 95 bd 99 b2 b3 bd 75 13 56 3e
       -0.094506204 -0.0728036 -0.08774299 0.2090586
000330 a1 8d 4c 3e cc 1e 8a be 3e 3a 86 be 65 c4 98 bc
       0.19975902 -0.2697662 -0.2621631 -0.018648336
000340 7a a5 94 3e e1 5b 47 be 74 bb 1d be f6 d4 6f bb
       0.290325 -0.19468643 -0.15403539 -0.003659544
000350 4d d0 11 3e 61 80 8e be 3f 6d 5c be ec 33 98 be
       0.14239617 -0.2783232 -0.21526049 -0.29727113
000360 26 11 5b be b9 e4 02 3e cf 5f 36 3e 23 d9 b2 3d
       -0.2139326 0.12782563 0.17809986 0.08732822
000370 96 65 98 be 0d 28 68 be d4 d2 7e 3e 41 19 46 be
       -0.29765004 -0.22671528 0.24885112 -0.19345571
000380 95 d8 f0 bc 18 6a 9e bd 86 9e 17 3e 21 9a 26 3e
       -0.02940015 -0.077350795 0.14806566 0.16269733
000390 47 d6 5d 3e 69 1f d1 3c 0c 62 bf be fc 81 4d 3e
       0.21663772 0.025527673 -0.3737949 0.20069116
0003a0 2a 02 21 be 1b bf 9f be fb 30 1e 3e a9 7d 55 be
       -0.15723482 -0.3120049 0.15448372 -0.20848717
0003b0 5e eb fa bd 2b 83 25 be 2c 94 c5 3d 7f b0 79 3e
       -0.12251924 -0.16163318 0.09647402 0.24383734
0003c0 b9 d1 c8 bc a2 3f 16 3e 2d 31 41 3d 20 ac c7 3d
       -0.024514066 0.14672711 0.04716604 0.09749627
0003d0 03 f7 97 be 1c 30 aa 3e 00 6d 46 bd a1 45 ee 3d
       -0.29680642 0.3323983 -0.048443794 0.116343744
0003e0 cd c7 0c be 19 50 80 bd 2a da 8c be 2b 3f 88 be
       -0.13748093 -0.062652774 -0.27510196 -0.26610693
0003f0 a9 51 a5 3e 13 99 8d be 73 06 48 be f5 fe 94 3d
       0.32288864 -0.2765585 -0.1953371 0.07275192

lstm.bias_ih_l0 f4 [256]
000000 21 f2 49 3e 6e 3d 8f 3e 75 a4 89 3d 0a eb 5f 3e
       0.19721271 0.27976555 0.06720821 0.21867004
000010 76 90 57 3d 82 e0 d1 bd cb 52 f9 3c 47 9c c4 3d
       0.052628003 -0.102478996 0.030434987 0.0960012
000020 3b 1d 78 3d 02 59 32 3d d9 87 c7 3d 5d 7b 44 3e
       0.06057475 0.043541916 0.09742708 0.19187684
000030 31 b2 f4 3c 52 51 29 3d d4 15 6f 3e a6 d5 29 3e
       0.029870125 0.04133732 0.2334817 0.16585407
000040 9c c9 32 3e 76 5e b2 bd 77 8a 67 3e 37 9f bd bd
       0.1745972 -0.08709423 0.22611414 -0.092588834
000050 19 f3 d4 3d 58 3a eb 3d 80 45 f6 3d 06 47 1c 3e
       0.1039793 0.114857376 0.12024975 0.15261468
000060 7c 1b 28 3e c4 12 44 3e 1f ea 4a 3e cc a9 44 3e
       0.16416734 0.19147784 0.19815873 0.19205397
000070 a7 81 4c 3e ba 90 f8 3c 4d 85 ca 3d 61 d7 31 3e
       0.19971333 0.030342449 0.09888706 0.17367317
000080 53 8b 2f bd 22 08 62 3d 37 e8 84 3d 14 88 c2 3d
       -0.04285748 0.055183537 0.06489604 0.09498611
000090 e0 2d af 3d c1 fa 89 3e 95 a5 1f 3e d1 a2 4f 3d
       0.08553672 0.26949123 0.15590508 0.050692383
0000a0 26 72 94 bd 43 08 2f 3c a5 73 d4 3d 64 ed 10 3b
       -0.072483346 0.010683122 0.1037362 0.0022114152
0000b0 88 7f 22 3e 83 cb 34 3e 29 1c 61 3e d9 aa 63 3e
       0.15868962 0.17655759 0.21983398 0.22233142
0000c0 81 47 5a 3e dc e3 47 bd 57 d1 0f 3e a7 40 2d 3e
       0.21316339 -0.048801288 0.140447 0.16919194
0000d0 d3 b5 27 3e c5 c0 87 3e 51 56 46 3e df 54 77 3e
       0.16377954 0.2651426 0.19368865 0.2415347
0000e0 64 db 95 3e 3d 57 f1 3d dc a3 8d ba f2 eb 43 3e
       0.29268944 0.117842175 -0.001080628 0.19132975
0000f0 6f 85 a9 3d 78 9a 69 bb a0 b5 70 3d b0 09 18 3e
       0.082774036 -0.003564505 0.05876696 0.14847445
000100 75 3b 26 3e 31 60 45 3e 6e 46 2e bd b8 94 f9 3d
       0.16233619 0.19274975 -0.042547636 0.12186569
000110 44 75 5d 3c bd 08 0b be a5 3e e9 bd b9 0c 6d 3d
       0.013516728 -0.13577552 -0.113889016 0.05787346
000120 4a e5 d4 bd 28 a3 d7 bd 63 82 4c 3e 48 a7 55 3e
       -0.10395296 -0.105291665 0.19971614 0.20864594
000130 88 7e f6 3d f9 00 e7 bd 8d 40 c2 3e a6 12 fc 3d
       0.12035853 -0.112794824 0.37939873 0.123082444
000140 53 73 21 3d 98 2c b9 bd 49 ae bc 3d 4d 2b 0c be
       0.039416622 -0.09041709 0.0921293 -0.13688393
000150 a4 78 22 3e 38 6b 8d 3e d9 70 47 3e f5 9c 47 bd
       0.15866333 0.27620864 0.19476642 -0.04873367
000160 0a 7c 60 3c a3 26 1f 3e 80 31 22 3e a6 8e 74 3e
       0.013701448 0.15542082 0.15839195 0.23882541
000170 2d cf 9c 3d 6f 61 f7 bd 56 d3 e0 bd 9f cc fe 3d
       0.07656703 -0.12079131 -0.10977809 0.12441372
000180 e5 d5 12 bd ed 00 04 be b8 03 74 3d e5 47 6e 3a
       -0.035848517 -0.12890978 0.05957386 0.00090896926
000190 b2 71 41 3e 41 94 54 3e 83 b8 cb 3d 33 d1 c9 39
       0.18891028 0.2075968 0.09947302 0.00038493573
0001a0 16 45 bb bd 10 31 6a 3e c9 12 4b 3e 3a 78 a8 bb
       -0.091440365 0.22870278 0.19831385 -0.0051412852
0001b0 9a 7e fd 3c ed ff 1a 3d 2d 0b 2d be 6f 48 fb 3c
       0.030944157 0.037841726 -0.16898794 0.030674187
0001c0 f1 4c 4a 3e 63 e0 25 be 9d 28 f7 3d 75 23 3e bd
       0.19755913 -0.16198878 0.12068293 -0.046420533
0001d0 5f 29 d3 bc 36 4e 1f 3e 03 10 f8 3c f8 5f 86 3e
       -0.025776563 0.15557179 0.030281072 0.26245093
0001e0 0c e6 b1 3e b3 51 a6 3c 76 43 ca bd 38 64 c3 3d
       0.34745824 0.02030263 -0.098761484 0.095405996
0001f0 58 97 4c 3e ce 10 58 3d 70 cf 1c 3e d1 b6 0b be
       0.19979608 0.0527504 0.15313506 -0.13643958
000200 76 77 a1 bc 95 12 ab 3d 2f e2 af 3b c6 f4 2c 3d
       -0.019710284 0.083531536 0.0053675394 0.04222562
000210 19 95 26 3d b5 c2 06 3d 7b 97 23 3e eb 58 50 3d
       0.040669534 0.03290053 0.15975754 0.05086605
000220 06 14 ad bb 48 55 a5 3c 2a eb 05 be 81 fb 23 3e
       -0.005281928 0.020182267 -0.13077989 0.1601391
000230 0a c2 2b 3e dc 89 d8 bd 54 77 b4 bd 94 88 18 3e
       0.16773239 -0.105731696 -0.088118225 0.1489585
000240 74 8c 48 3e ca f6 03 3d 5c 57 c4 bc e3 22 0a 3e
       0.19584829 0.03221778 -0.023967437 0.1348987
000250 42 fc 08 3e 69 82 27 be f8 f3 1d be a3 a9 4b bd
       0.13377479 -0.16358341 -0.15425098 -0.049722325
000260 b9 7f f1 bd cd cf 15 3e bf 73 0b 3e d8 df 7e bd
       -0.11791939 0.14630051 0.13618372 -0.062225193
000270 e6 c6 9e bd 16 20 03 3c 89 5e a1 3d c9 fd 25 be
       -0.077527806 0.008003255 0.07879359 -0.16210093
000280 9d cb a4 3d 16 89 19 be ac 6b 38 3e bb ba e3 3d
       0.08046649 -0.149937 0.18009824 0.111196004
000290 59 c4 1a 3e 15 1c 12 3e 9c 23 2e 3b 88 35 ff 3d
       0.15113963 0.14268525 0.0026571518 0.12461382
0002a0 d1 50 33 bc 1d 51 3d be 10 f1 a3 3d f3 50 f8 bd
       -0.010944561 -0.18487974 0.080049634 -0.12124815
0002b0 d4 28 19 be be a5 53 3d 14 f4 f8 bc 66 3f 05 3e
       -0.14956981 0.051671736 -0.030389823 0.13012466
0002c0 2c 55 93 bd 68 3d a9 3c 11 09 bf 3d a0 41 5a bd
       -0.071939796 0.020659164 0.09327901 -0.05328524
0002d0 3b b0 06 be fd 1c 9b 3d 28 4e 46 bd 79 2b 0a 3e
       -0.13153164 0.075738885 -0.04841438 0.13493146
0002e0 51 dd 32 3d f1 b7 1f be 89 b3 0a be f6 96 fa bd
       0.043668095 -0.15597512 -0.1354505 -0.12235825
0002f0 de 07 f0 3d 83 fa c5 bc c8 d5 4e be 1a 35 b5 bd
       0.117202505 -0.024167305 -0.20198739 -0.08848019
000300 82 d5 b5 3d 11 ee 10 3e d1 97 7a 39 54 b4 8c 3e
       0.08878614 0.14153315 0.00023898414 0.2748133
000310 00 3c 7e 3d 09 0d 38 3e 5f de 53 3e 80 c8 77 3e
       0.06206894 0.17973723 0.20690297 0.24197578
000320 10 f5 3c 3d 2a 27 62 3e 6e 59 78 3e d9 95 92 3e
       0.046132147 0.22085252 0.24252865 0.2862995
000330 83 db 2c 3e c0 66 49 3e f7 3b 92 3e 17 d2 9d 3d
       0.16880612 0.19668102 0.28561375 0.07706087
000340 2a 7d 45 3e 33 f6 0b 3d 1a 24 8b 3e 08 81 29 3e
       0.19286028 0.03417034 0.2717598 0.16553128
000350 d7 43 a4 3d bb aa 94 3e 4d 2b 99 3d 16 84 29 3e
       0.08020752 0.29036507 0.07478962 0.16554293
000360 09 6e f8 3d 42 f6 3e 3e e3 5e 04 3e 61 1e 0e 3d
       0.121303625 0.18648627 0.12926821 0.03469694
000370 ab 4e 01 bc 93 5e 0d 3d 26 b6 50 3e d4 e6 cf 3d
       -0.007892291 0.03451402 0.20381984 0.10151449
000380 68 6b cb 3d 6b 83 e5 bc 1d ce b4 3d a6 cc 77 3c
       0.099325955 -0.028016767 0.088283755 0.015124476
000390 d8 82 59 3e d7 5e 1c 3e 34 8e 82 3e 56 be 04 3e
       0.21241319 0.15270554 0.25499117 0.12963232
0003a0 6e c5 0f bd 97 22 e2 3b 0a be 35 3e 71 7d 26 3e
       -0.035100393 0.006901096 0.17748275 0.1625879
0003b0 55 22 05 3e 3f 72 fe bb 6a 5c 9e 3e db db 1b 3e
       0.13001378 -0.007765084 0.3092988 0.15220587
0003c0 16 c0 6c 3e ed 02 d8 3d 1a 97 d5 3d 49 c4 09 3d
       0.2312015 0.10547433 0.10429211 0.033634458
0003d0 29 55 bc 3d 4b 7e 3b 3e 9c 4b 05 3e 60 f1 29 3e
       0.091959305 0.18309896 0.13017124 0.16595984
0003e0 bf a3 7b 3e 98 21 cb 3d 8b 34 05 3e ce 49 3f 3e
       0.24574183 0.09918517 0.13008325 0.18680498
0003f0 1f 16 0f 39 d3 5e 35 3e a9 43 28 3d 3f 8c 49 3e
       0.00013645783 0.17711954 0.04108015 0.19682406

lstm.bias_hh_l0 f4 [256]
000000 44 a8 44 3e 69 66 84 3d 6f bc 21 3e c9 07 8c 3e
       0.19204813 0.06464846 0.15794538 0.2734969
000010 78 05 38 3d 5e 4f a7 bd 5b cd 2e 3e da 11 d4 3d
       0.04492709 -0.08169435 0.17070524 0.103549674
000020 ba d6 5c 3d e8 15 1a 3e de f2 2e 3e 64 5f 2a 3e
       0.053915717 0.15047419 0.17084834 0.16637951
000030 4a 56 ee 3d 9a cf 70 3c 4c 54 9e 3e 36 30 42 3e
       0.11637552 0.014697934 0.30923688 0.18963704
000040 1e 5b db 3d 20 5a c5 bd 8e 70 46 3e 53 f9 8a 3d
       0.107107386 -0.096363306 0.19378874 0.06785836
000050 15 f2 63 3e 4f 28 ee 3d ae 89 15 3e 83 4a de 3d
       0.22260316 0.11628782 0.14603302 0.10854056
000060 b6 19 9a 3d c4 f8 80 3e 7d 42 a9 3d 59 61 4a 3e
       0.07524435 0.25189793 0.08264635 0.19763698
000070 2d d7 0d 3e 40 a6 61 bd 1d 27 94 3d 41 63 0f 3e
       0.13851614 -0.05509019 0.07234023 0.14002706
000080 c4 c2 d5 3c de 62 ef bd bc f5 16 3c f7 99 68 3e
       0.026093848 -0.11688779 0.009213861 0.22714983
000090 65 af 26 3e 48 c8 92 3e fa 81 bb bc 1f 5c 56 3e
       0.16277845 0.28668427 -0.022889126 0.20933579
0000a0 d3 d5 89 3b db 6e 4e 3e eb 09 39 3e 4a 04 38 3e
       0.004206398 0.20159476 0.1807019 0.17970386
0000b0 64 e0 01 3e 17 10 48 3e c0 4c 8c 3e d1 8a 4a 3e
       0.12683254 0.19537388 0.27402306 0.19779517
0000c0 98 e9 05 3e 25 32 51 bd 6e d5 61 3d 8e c4 fc 3d
       0.1307739 -0.051073212 0.055135183 0.12342177
0000d0 b6 3d f0 3d f0 ce 32 3d 32 bd f7 3d 1f cd f9 3d
       0.117305204 0.043654382 0.12096633 0.12197327
0000e0 0f a4 69 3e df 14 74 3e 63 f0 cf 3d 3c a8 c4 3c
       0.2281649 0.23836087 0.10153272 0.024006002
0000f0 a5 c7 c9 3c 84 aa 45 3e ab be 50 3d c3 14 56 3d
       0.02463133 0.19303328 0.050963085 0.052265894
000100 ae 98 f8 3d 61 28 a4 3e ab 36 73 3d 8d 01 2f ba
       0.12138496 0.32062057 0.059378307 -0.00066759513
000110 d5 5b e4 3d d2 c2 51 be 8e d0 8d 3d 20 f7 50 38
       0.11150328 -0.20484474 0.06924544 4.9821218e-05
000120 61 77 b0 bd ac 9e c9 bd f1 bb 27 3e 7f cc 1e 3e
       -0.0861652 -0.098447174 0.16380288 0.15507697
000130 23 bc 14 3e ad 82 bf 3d 39 da 7e 3e 14 da 65 bd
       0.14524893 0.09351096 0.24887933 -0.05611618
000140 04 3c 56 bd 41 53 5f be e5 7f 6e 3d 22 ad 43 be
       -0.05230333 -0.21809103 0.05822744 -0.19109014
000150 64 1e bd 3d 64 b6 8c 3e c4 63 06 3b 07 bc 17 be
       0.09234312 0.27482903 0.0020506242 -0.1481782
000160 73 58 c5 bd 93 85 74 3e 12 84 f9 3d df a6 e2 3d
       -0.09636011 0.2387908 0.121833935 0.110669844
000170 6e b3 ae 3c 9a 82 f4 bd 4f 5c 03 be 42 2b d4 3c
       0.021325793 -0.11938973 -0.12828182 0.025899533
000180 28 9e 44 be 8b 54 53 bd c6 f0 a6 bd 52 cb 25 3e
       -0.19200957 -0.0515943 -0.08151393 0.16190842
000190 ac 5a a0 3e 3a 59 86 3e f9 20 2e 3e 0c 0e af 3d
       0.31319177 0.2623995 0.17004766 0.08547601
0001a0 a3 46 36 bd 03 30 64 3e 0e 76 28 3e 0a 42 80 3c
       -0.04450096 0.2228394 0.16451284 0.01565649
0001b0 0e 0d 17 3e 15 c9 01 bc b7 b7 94 be 0c 72 8b 3d
       0.14751074 -0.007921477 -0.29046413 0.06808862
0001c0 4b 14 b4 3d bd 79 91 bd 43 ff 7f 3d 88 46 da 3c
       0.08792933 -0.07103298 0.062499296 0.02664496
0001d0 b5 54 92 3d cb 8a 53 3c 2d 85 e8 bd 66 7d 89 3e
       0.07145063 0.012911509 -0.11353526 0.26853484
0001e0 d5 92 9f 3e 6f 68 76 3e a6 d6 6f bd 6f fc 7b 3e
       0.3116671 0.24063276 -0.058554314 0.24608015
0001f0 85 8e 88 3d 5d 31 c3 3d 3e 6a 08 3e 2f 6a 81 be
       0.066678084 0.095309 0.13321778 -0.25276324
000200 df 45 34 3e e3 fc 11 3e d4 fd 47 be c9 c1 02 be
       0.17604779 0.14256625 -0.19530421 -0.12769236
000210 33 9f b0 3d f0 41 8b bd ba 6f 02 3e 6c f7 27 be
       0.08624115 -0.06799686 0.12737933 -0.16402978
000220 44 11 6e bd 14 74 14 3e 71 8c fe bd 70 89 0a 3e
       -0.058121935 0.14497405 -0.12429131 0.13528991
000230 98 f0 36 3e b0 d8 a9 bd 94 65 db bd 1b 7f 32 3d
       0.17865217 -0.08293283 -0.10712734 0.04357825
000240 0a c8 9d 3d c3 2d a3 bd e1 f9 40 be 00 a7 0e 3b
       0.0770417 -0.07967713 -0.18845321 0.002176702
000250 ed c8 d2 3d 68 d6 ce bd 6b d5 07 be 3c 01 29 be
       0.1029223 -0.100994885 -0.13265006 -0.16504377
000260 10 68 b2 bd ef 09 bd 3d ff c9 41 3e 82 6b 9c bc
       -0.087112546 0.0923041 0.18924712 -0.019094232
000270 6c 79 0d be f4 00 29 be 6d 8d 70 3d b5 06 23 be
       -0.1381585 -0.1650427 0.058728624 -0.15920527
000280 f0 9c 0d 3c 7d c1 c4 bd 99 cc d4 3d 0d 96 34 3e
       0.008643374 -0.096072175 0.103905864 0.17635365
000290 81 4c 0a 3e d2 5a 1f 3d f7 6c 21 be 37 c3 c6 3d
       0.13505746 0.038904972 -0.15764223 0.09705203
0002a0 57 b7 f8 bc 21 0b 8c bd 2f 38 ca 3d 75 e1 04 be
       -0.03036086 -0.0683806 0.098739974 -0.1297663
0002b0 3d ee 43 be 83 d5 38 be 27 2d 02 3e eb a7 50 3e
       -0.1913385 -0.18050198 0.12712537 0.20376556
0002c0 e7 cb 2b be d3 5b 0e 3e 08 1b 93 3c bf d6 9b 3d
       -0.16777001 0.13902216 0.017957225 0.07609319
0002d0 dd 8c 0a be 59 25 42 3e 05 30 9a bd e4 29 85 3d
       -0.13530298 0.1895956 -0.0752869 0.06502131
0002e0 e9 7d 32 be ea 64 93 bd f8 f3 28 be dc d2 37 be
       -0.17430843 -0.07196982 -0.16499317 -0.1795153
0002f0 06 a6 37 3e 24 74 3f be e5 b2 82 be 72 08 08 bd
       0.17934427 -0.18696648 -0.2552711 -0.03321118
000300 e4 4c a1 3d 71 9b 81 3e 15 31 12 3e 6c e7 cd 3d
       0.07875994 0.25313905 0.14276536 0.10053906
000310 31 fc d7 3d 22 2f 93 3c 73 7b 47 3e 21 9f 3d 3e
       0.105461486 0.01796681 0.19480686 0.18517734
000320 cc 0b fc 3b 0e 23 7b 3e 50 34 77 3e dc 03 03 3e
       0.007691836 0.24525091 0.2414105 0.12794441
000330 89 c3 37 3e fb 3a 68 bc cb f9 de 3d 9b 41 6e 3e
       0.17945684 -0.014174218 0.10887488 0.23267214
000340 5c 42 7c 3e 56 15 43 3d f2 6f 6c 3e fe fe 54 3d
       0.24634689 0.04762777 0.23089579 0.052000992
000350 7a 71 70 3e ab 56 84 3d ce ad 6e 3e 02 c7 3c 3e
       0.23480788 0.06461843 0.23308489 0.1843529
000360 99 2a 9d 3d d3 05 1e 3d bf 5f 45 3e a1 f1 3c 3e
       0.076741405 0.038579773 0.19274805 0.18451549
000370 b9 00 1e 3e d0 a1 0d 3d fd ec bc 3d 6a ad 32 3e
       0.15429963 0.034578145 0.092248894 0.17448965
000380 ec 06 2a 3e 85 17 24 bd 81 58 30 bd 09 a4 90 3d
       0.16604203 -0.040061492 -0.043053154 0.07062537
000390 09 d1 81 3e c1 2c 5f 3d aa c9 2b 3e 95 fa 5e 3e
       0.25354794 0.05448604 0.16776147 0.21775277
0003a0 c5 4c 0e 3d 63 92 fb 3d 57 26 1c 3e 5e d3 1d bc
       0.034741182 0.122837804 0.15249 -0.009632913
0003b0 2a 94 38 3e 75 30 11 bb 25 e9 08 3e c8 a7 1a 3d
       0.1802527 -0.0022154127 0.13370188 0.037757665
0003c0 3f 7b 42 3e b8 10 08 3e df 4d 40 3d ac 93 30 3c
       0.18992327 0.13287628 0.046949264 0.010777395
0003d0 ab 30 ed 3d 01 33 75 3e 51 ca ea 3c 9e 33 12 3e
       0.11581548 0.23945238 0.028660925 0.14277503
0003e0 8b 0d a2 3e 89 93 bb 3d af b7 f3 3c 9d 76 71 3e
       0.31650957 0.091589995 0.029750673 0.23580404
0003f0 a3 4b 07 3e a8 66 1c 3e 6a 9c 18 3d 43 d7 26 3e
       0.13212447 0.15273535 0.037258543 0.16293053

lstm.weight_ih_l1 f4 [256, 64]
000000 5b 44 04 3e 98 df f2 3d 26 39 53 be 64 2a 7c bd
       0.129167 0.118590534 -0.20627269 -0.061563864
000010 a6 42 74 bd 38 2b 81 bb f1 f9 14 3e ac bc 69 be
       -0.059633873 -0.0039419197 0.1454847 -0.22825879
000020 02 25 ab 3d 7b 02 b2 bd 16 5b 8d be 63 58 e1 3c
       0.08356668 -0.08691879 -0.27608556 0.027507966
000030 b1 63 21 3e fd b5 b8 bd e8 d8 5a be af bd 5d 3e
       0.15760686 -0.090190865 -0.21371806 0.2165439
000040 11 5e e7 3c 83 28 bd 3d 80 09 57 be 6a 5e df 3d
       0.028243097 0.092362426 -0.20999718 0.1090668
000050 c1 9e 5a 3e d0 93 8e be 27 cc 8d bd b7 5a 10 bd
       0.21349622 -0.27847147 -0.069237046 -0.035242762
000060 ed 99 f9 bc 34 a0 90 ba 11 98 ac 3d 74 eb 37 be
       -0.030468905 -0.0011034072 0.08427442 -0.17960912
000070 b3 3a e2 bd 64 35 48 be 8a 2b 16 3d 26 fd de bd
       -0.11046352 -0.19551617 0.036662616 -0.10888128
000080 ff 8e 5e 3e c0 92 f9 bd e0 f0 45 3e e4 3b c4 3d
       0.21734236 -0.121861935 0.19330168 0.09581736
000090 17 67 e2 3d 54 dc 53 3e ad 9a ee bd c6 ac 36 3e
       0.11054819 0.20689517 -0.11650596 0.17839345
0000a0 80 09 34 bd c5 e9 e9 bd 94 10 aa 3d 2a e2 52 3b
       -0.043954372 -0.11421541 0.08303943 0.0032178261
0000b0 a0 63 22 be e3 ee 23 bd 60 5f 82 3d 55 95 5c 3e
       -0.15858316 -0.040022742 0.063658476 0.2154134
0000c0 37 b6 51 be b3 c3 12 bd c8 6c 82 3d ba 12 82 bd
       -0.20479666 -0.035831165 0.063684046 -0.06351228
0000d0 04 54 5c bd 09 cc 2e 3d 2c 5d 49 3d 53 1e 6f 3e
       -0.05379106 0.04267505 0.04916112 0.23351412
0000e0 cd a4 3e be eb 8f 5c bd 3f 18 f1 bd 38 52 07 be
       -0.18617554 -0.05384819 -0.11772203 -0.13214958
0000f0 9f 62 96 3d 47 a3 17 be 67 f9 81 bc c0 52 b9 3c
       0.07343029 -0.14808379 -0.015865995 0.022622466
000100 59 e0 19 3e 85 38 b2 bd 07 18 2c bf b5 21 41 3d
       0.15026988 -0.087021865 -0.6722416 0.047151286
000110 78 60 ef 3d 95 0b 96 3d ab 6e c2 bc 31 e3 9d be
       0.11688322 0.07326428 -0.023734411 -0.30837396
000120 13 5d c5 bd 6a e4 60 3e 6f 8e 83 be 2a 4a 1a 3e
       -0.09636893 0.21962133 -0.25694606 0.15067354
000130 2d b2 ad 3e 9c ef 2c be bd ec e3 be b4 d6 8d bd
       0.33925 -0.16888279 -0.44516554 -0.06925717
000140 94 1f 92 3e 10 56 00 bf 25 b7 bd 3c ac 9c e4 bc
       0.28539717 -0.5013132 0.02315862 -0.027906738
000150 c4 98 fb 3e 8e 1f d7 bb b0 be f8 be 73 32 d7 be
       0.49139988 -0.006565041 -0.48582983 -0.42030677
000160 35 9b 82 be ae 9a a5 3d 20 ad c8 3d c3 bf c9 bd
       -0.2550904 0.080861434 0.09798646 -0.09851029
000170 4f 2d 88 be f8 dd a4 bb 26 93 b9 3d 07 f2 d5 be
       -0.26597068 -0.0050313435 0.090612695 -0.41786215
000180 06 1b cf 3d 99 3a f2 3d b7 7a c8 3e ad 84 6c 3d
       0.10112576 0.11827583 0.39156124 0.057743717
000190 cd 56 1d 3e e7 c4 f0 3e f3 a0 90 bd 3d 36 5d 3e
       0.15365143 0.47025225 -0.070619486 0.21602722
0001a0 9c cd df be 2d 04 e5 bd 8d d3 c0 3e 9f 06 bc be
       -0.43711555 -0.11182437 0.376614 -0.36723801
0001b0 0b 4e 99 be fa 25 3d be 49 c8 06 3e 9c fc e3 3d
       -0.29942355 -0.18471518 0.1316234 0.11132166
0001c0 85 e8 bf be 08 f8 2f bd ba ce 95 3e 12 1d 9d 3d
       -0.37482086 -0.04296115 0.29259282 0.0767156
0001d0 6b 8f c2 be 91 76 c1 3e 2a d4 fa 3d a2 e6 50 be
       -0.38000044 0.3778577 0.12247498 -0.2040048
0001e0 cc de 01 3c 1a f9 10 be 21 19 d9 bd d2 18 ca bd
       0.007926654 -0.14157525 -0.10600496 -0.09868015
0001f0 79 08 9f 3e d8 b2 96 be 59 63 7e be 75 b3 8c 3d
       0.31061152 -0.29433322 -0.24842586 0.06870166
000200 67 7f 87 bd d7 b7 e4 3c 49 37 38 be 9c 99 ca bd
       -0.06616097 0.027919693 -0.1798984 -0.0989258
000210 cb cf 0f 3e af 1d 1a 3e a6 ca 01 3e 23 4c bf bd
       0.1404411 0.15050386 0.1267496 -0.09340694
000220 cf 0a 01 bd 3d ba 7f be 69 87 31 be 90 ea fe 3d
       -0.03150445 -0.24973388 -0.17336811 0.12447083
000230 f6 84 10 3e 80 17 bf bd 20 cb b6 bd f5 b7 44 be
       0.1411322 -0.09330654 -0.08925462 -0.19210799
000240 a0 8e 66 3e 38 bc 2b be a1 c4 82 bd 8a 2d b6 bd
       0.22515345 -0.16771019 -0.0638516 -0.08895405
000250 f3 f8 8f 3e 52 7f a1 3c 58 ea 87 be 1a d7 47 be
       0.2811962 0.019714031 -0.26545978 -0.19515648
000260 da 6b e5 bd 57 d2 71 3d 50 98 d4 3d 01 5f 8b 3c
       -0.11202212 0.059038486 0.10380614 0.017013075
000270 86 ad df bd 0a 53 20 3d ff e6 a1 3d 15 b0 47 be
       -0.10921769 0.039141692 0.07905387 -0.19500764
000280 e4 8c a1 3d 8c 8b 4d be e5 16 a4 3e 88 dc 55 3c
       0.07888201 -0.20072764 0.32048717 0.013053067
000290 63 73 57 3c eb 81 c4 3e 7a cf 66 be e3 9c 09 bd
       0.013150069 0.3838037 -0.22540084 -0.033596884
0002a0 36 0e 85 be 6d 9c 2a be a4 a1 9e 3e 03 e7 1b be
       -0.25987405 -0.16661234 0.30982697 -0.15224843
0002b0 09 fe 67 be c4 a3 6b be 12 a3 9f bd 1f 66 0d 3e
       -0.226555 -0.2301169 -0.07794775 0.13808487
0002c0 f8 a9 24 be c0 4a 8c 3e 42 4c ed 3d 70 9c 0a 3e
       -0.16080463 0.2740078 0.11586811 0.13536239
0002d0 b8 3e 0a be 2f 86 46 3e 1c 21 a7 3d a3 09 cf 3d
       -0.13500488 0.19387124 0.08160612 0.1010926
0002e0 56 11 9e bd b2 10 05 be 64 0c 36 be b3 a3 36 be
       -0.0771815 -0.1299465 -0.17778164 -0.17835884
0002f0 61 47 cf 3d e3 04 a8 be 50 04 81 be 06 65 82 bb
       0.10121036 -0.32816228 -0.25198603 -0.003979328
000300 fc b3 8b 3e 08 e9 aa 3d 7f fb 74 3b 7c 7c b7 3d
       0.27285755 0.083452284 0.0037381349 0.089592904
000310 f9 4e bb 3e 7b 0f 12 be 04 4c 9c 3c ed d3 96 bd
       0.3658369 -0.14263718 0.019079216 -0.073646404
000320 59 31 6a 3d 66 ee 52 3d 40 e9 17 be ed 50 14 3e
       0.057175968 0.051496886 -0.14835072 0.14483996
000330 86 ee af 3d b9 0a de bd 3c 70 55 be 9c 2a fa 3d
       0.085904166 -0.10841889 -0.20843595 0.12215158
000340 7c 1c 59 3e 87 80 08 be cb c4 82 be ee a6 77 bd
       0.21202272 -0.1333028 -0.25540766 -0.06046193
000350 cd 13 80 3e 40 86 b5 bd 07 c7 57 be 70 62 d3 bc
       0.25015107 -0.08863497 -0.21072017 -0.025803775
000360 f7 10 ff 3c f7 eb 55 bc ea e8 d7 3d de 99 8b be
       0.03113602 -0.013056747 0.10542472 -0.2726583
000370 00 ce 9f bd 5d 4f 7d bd f1 e1 e7 3d d3 47 06 be
       -0.07802963 -0.061843265 0.11322392 -0.13113336
000380 57 e3 df bc 7e 75 ad 3d 2e c1 5e 3e 61 74 88 3e
       -0.027330084 0.084696755 0.2175338 0.2665129
000390 61 25 9e 3e 64 62 f1 3d 1b 65 2a bd 13 93 4f 3e
       0.30887893 0.11786345 -0.041600328 0.20270948
0003a0 77 02 cf 3d e5 03 a5 bd ed 6e 4c 3e 53 ac 40 be
       0.10107892 -0.080573834 0.1996419 -0.18815736
0003b0 03 67 a3 bd 11 20 54 be 42 db 32 3e aa de 63 3e
       -0.07978632 -0.20715357 0.17466453 0.22252908
0003c0 fe 9f 87 be 80 3b aa 3d c3 6c 43 3e 3d 99 f7 3c
       -0.26489252 0.0831213 0.19084458 0.030224437
0003d0 4c 2d 94 be b2 01 95 39 b9 73 d7 bc ad e6 a6 3d
       -0.2894081 0.00028420758 -0.026300298 0.08149467
0003e0 b1 a8 58 be 8e 6a 02 3d ff 1f f6 bd b9 eb a1 bd
       -0.211581 0.0318399 -0.120178215 -0.07906289
0003f0 0c f1 86 3e 26 59 55 bd 3f f3 cb bd f9 52 88 3d
       0.2635578 -0.05208697 -0.09958505 0.06656451

lstm.weight_hh_l1 f4 [256, 64]
000000 e4 99 88 bd 1f c5 99 3e fa 97 3f 3e b4 d2 b8 3d
       -0.06669977 0.30033204 0.18710318 0.090245634
000010 a6 86 40 be 57 b6 76 3e 53 b2 2e be 71 54 94 be
       -0.18801364 0.24092995 -0.17060213 -0.28970674
000020 9a 36 3f bd 19 7b 90 be f1 a2 91 be b1 b1 52 3c
       -0.04668293 -0.28218916 -0.28444627 0.012859748
000030 9e 2d 57 be f1 1c fc bd 72 b3 6a bd 2d b0 17 3b
       -0.21013495 -0.12310208 -0.05730004 0.002314578
000040 7e 01 49 3b b4 1f 4f be b8 b6 69 3e 08 18 e5 3d
       0.0030671055 -0.20226938 0.22823608 0.11186224
000050 7d 20 a2 3e 55 ab 4d be dd 9c 4c be ed cd 94 3e
       0.31665412 -0.20084889 -0.19981714 0.2906336
000060 83 8d 60 be 3f 10 e3 bd c1 2f 9f 3d 2e 8c 4e 3e
       -0.21928982 -0.11087083 0.0777278 0.20170662
000070 b6 92 7a 3e b8 96 92 3c d3 c9 2d be 97 68 72 3e
       0.24470028 0.017894134 -0.16971521 0.2367271
000080 1d 24 38 3e cd 62 88 be 95 a4 b6 3d 12 45 b1 bd
       0.17982526 -0.2663788 0.0891811 -0.08655752
000090 4b 55 89 be d5 4a b4 3d e3 d9 74 bd 6a e0 c3 3c
       -0.26822886 0.088033356 -0.059778105 0.02391072
0000a0 cd 4b 84 be 28 e3 a4 bd 00 7d 83 be 57 ea 22 3e
       -0.2583908 -0.08051139 -0.25681305 0.15909706
0000b0 ff ad 0a be 98 81 6f 3e 14 78 9e bd a0 f1 a2 be
       -0.13542937 0.2338928 -0.07737747 -0.3182497
0000c0 33 1d b6 be cb bd d8 3d 98 46 07 3e c8 2b 4e 3e
       -0.35569152 0.10583075 0.13210523 0.20133889
0000d0 6e 91 b1 be 3b 61 69 3e 28 dc e6 bd 9d 19 21 bc
       -0.34681267 0.22790997 -0.1127246 -0.009832767
0000e0 e8 a4 96 3e c2 98 f3 3d 2d 68 47 3e 12 97 09 be
       0.29422688 0.118943706 0.19473334 -0.13436535
0000f0 19 54 b9 be e0 a6 7c 3e 49 22 8f 3e 19 43 bb 3d
       -0.36196974 0.24673033 0.27955845 0.09143657
000100 48 e8 8f be 8b 10 eb 3c 95 a9 b6 3d 37 24 c6 be
       -0.28106904 0.028694412 0.08919064 -0.38699505
000110 34 3d 22 be 31 3f a1 3d 51 2b 47 3d ee ad 25 3d
       -0.1584366 0.07873381 0.048625294 0.040449075
000120 14 a5 80 3e b0 a1 58 3e fa a3 be 3d 2e b8 63 be
       0.25125945 0.21155429 0.0930862 -0.22238228
000130 1d 40 19 bd f4 d9 ce be 12 3c e3 3d 49 01 cd 3d
       -0.03741466 -0.4040066 0.11095442 0.10010011
000140 d1 0e 00 3e e8 07 92 3d e2 8c 2b 3e 54 da 50 3e
       0.12505652 0.07130414 0.16752961 0.20395786
000150 06 0a 83 bd 85 d5 8b 3e 35 70 38 be ae 42 55 3e
       -0.06398396 0.2731134 -0.18011554 0.20826218
000160 20 89 1e 3d e2 ee e1 3e 09 1a 03 bd 06 8d 39 be
       0.03870499 0.44127566 -0.03200725 -0.18120202
000170 ce 3d 5e 3e f9 94 23 bd 82 ed 37 3e bc bc c2 3d
       0.21703264 -0.039936993 0.17961696 0.095086545
000180 fc f4 b1 bd 97 ed 2d be cf 49 71 3c d5 aa 86 3d
       -0.08689305 -0.16985165 0.01472707 0.065755524
000190 9e 21 17 3f 17 b0 41 be 31 d7 82 bd de 17 6c 3e
       0.5903567 -0.18914829 -0.06388701 0.2305598
0001a0 38 87 16 bd ce 0b bb bd ff f1 09 be 84 bf 20 be
       -0.03675005 -0.09133111 -0.1347122 -0.15698057
0001b0 97 06 9f bc 93 49 c9 3d 92 51 e2 bd e6 cd e2 3e
       -0.019412322 0.09828486 -0.110507146 0.44297713
0001c0 23 fb 72 3d 3e a9 05 bd c3 4e ad bd 05 09 15 3e
       0.059321534 -0.032632105 -0.08462288 0.14554222
0001d0 f7 7d 68 3e f6 a9 bf 3d f4 ce 37 3e 1b 86 86 bd
       0.22704302 0.09358589 0.1795004 -0.06568547
0001e0 a3 43 cb be b9 98 de be e6 9c cc bd 1b e4 a7 be
       -0.3970004 -0.43475893 -0.099908635 -0.32791218
0001f0 0d 17 16 3f 3a 44 20 3e 63 31 b9 bd 03 66 08 3e
       0.5862892 0.15651026 -0.09042623 0.13320164
000200 c8 22 60 be b2 0a 8a 3c 98 4e 39 3e 11 35 83 3d
       -0.21888268 0.016850803 0.18096387 0.06406606
000210 2d a8 ad be 9b be c0 3e 2c d9 ec bd f9 b3 8c be
       -0.3391737 0.3764542 -0.1156486 -0.27481058
000220 eb f8 04 be 5e d0 f1 bc 3c 44 5c be 32 fb 8b be
       -0.1298558 -0.029518303 -0.21510404 -0.27340084
000230 0c d3 91 be a7 99 ce 3b 60 41 3a be 15 62 f2 be
       -0.28481328 0.006304938 -0.18189001 -0.47340456
000240 5e 00 41 bc eb 17 a1 be a5 e5 53 3e d0 0f de 3d
       -0.011779873 -0.3146356 0.20693071 0.1084286
000250 ef e7 b1 3e 6a 74 5d be 89 da cb bd cd c1 0d 3e
       0.34747264 -0.2162644 -0.09953792 0.1384346
000260 0a 07 bd bd 52 61 80 be f1 bf 77 3e 74 37 4c 3d
       -0.09229858 -0.2507425 0.24194314 0.04985757
000270 18 2d 9b 3e 08 e3 42 3e 7e bf c0 be bc 10 66 3e
       0.3030784 0.19031918 -0.37646097 0.22467321
000280 39 c4 cb 3d 3c 49 6b be fe 23 d5 3e 0a d1 ba be
       0.09949536 -0.22977155 0.41629022 -0.3648761
000290 a7 82 ac 3c 64 7d de 3d 75 ef 8e be 00 53 42 3e
       0.021058394 0.1086376 -0.27917066 0.18976974
0002a0 88 2a ab bc 25 6a d6 bd 62 06 9c be 75 74 a6 bb
       -0.020894304 -0.10469464 -0.3047362 -0.0050798007
0002b0 16 8d 98 be f3 d6 5a 3d 07 75 80 be 86 7a 38 be
       -0.2979514 0.053427648 -0.25089285 -0.18015489
0002c0 3f 7e 5c be ef eb 11 3e 99 50 90 3e 1f ea d0 3d
       -0.21532534 0.14250158 0.2818649 0.10200905
0002d0 d8 59 07 be 00 f3 eb bc 24 90 f3 bd 36 1c 80 3e
       -0.13217866 -0.028802395 -0.11892727 0.25021523
0002e0 84 3c df 3d 11 83 b3 bd 75 09 6a 3e c1 b9 32 be
       0.10900214 -0.08765233 0.2285517 -0.17453672
0002f0 5f 61 f0 bd d2 19 d1 3e 2d db d1 bd 95 34 0e 3e
       -0.11737322 0.40840012 -0.102468826 0.13887246
000300 c0 f8 67 be b6 48 a3 3e ae a3 32 3d bf 64 48 3d
       -0.22653484 0.31891412 0.04361313 0.048924204
000310 fd 8b 54 be 5d b5 ad 3e d9 48 17 bd a4 36 b4 be
       -0.20756526 0.33927432 -0.036934707 -0.35197937
000320 fc d2 8a bd aa 11 82 be 0b 85 cf be 7c 67 0d be
       -0.06778523 -0.25404102 -0.4053119 -0.13809007
000330 7e f8 7d be e9 fb 18 be 19 11 0e be da 1c f3 bd
       -0.24801823 -0.14939846 -0.1387371 -0.118707374
000340 90 1d 38 3e df ae 3d be ff 50 6f 3e b1 41 e9 3e
       0.17980027 -0.1852374 0.23370741 0.4555793
000350 72 01 04 3e bc 58 1f be 8b 43 77 be f2 3f 7b 3e
       0.12891176 -0.15561193 -0.2414686 0.24536112
000360 90 73 29 be 93 33 88 bd c4 31 f6 39 4e 6a 51 3b
       -0.1654799 -0.06650462 0.00046957855 0.0031954232
000370 c4 cf 9d 3e 2f 5c 1d 3e f8 26 b0 be c0 f3 d6 3e
       0.30822575 0.15367197 -0.3440473 0.41982841
000380 42 36 af 3e a1 54 b0 be a5 c0 b4 3e 78 b8 82 be
       0.34221083 -0.34439567 0.35303226 -0.25531363
000390 06 87 90 3d f9 74 08 be 77 71 84 be c6 c4 94 3e
       0.07057004 -0.13325872 -0.25867817 0.29056376
0003a0 81 ff 83 be f0 e0 95 be d2 26 9b be 2e 00 6f 3e
       -0.25780872 -0.29273176 -0.30303055 0.23339912
0003b0 eb 27 80 be 90 8f 6f 3e d1 ca 39 be 00 d7 aa bc
       -0.25030455 0.23394608 -0.18143775 -0.020854473
0003c0 3b f9 8a be ea 94 18 3e 21 1c 43 3e 31 cf 01 3e
       -0.27143273 0.14900556 0.19053699 0.12676693
0003d0 2e 57 f6 bd 66 a9 95 3e 97 ea 0b be 3f f1 5b 3e
       -0.12028347 0.29230803 -0.13663708 0.21478747
0003e0 6a 91 0f 3e 12 c7 35 3d 61 2c 26 3c 72 c8 d2 be
       0.14020315 0.0443793 0.010142417 -0.41168553
0003f0 c6 6e fe bd 1b cf c5 3e bf 6e 13 3e cd 73 a6 3e
       -0.12423472 0.3863457 0.14397715 0.32510224

lstm.bias_ih_l1 f4 [256]
000000 e7 7d 08 3e 1f 0e 3a 3e 40 51 3b 3e 43 af 2f 3d
       0.13329278 0.1816945 0.18292713 0.042891752
000010 bb ab ef 3d 26 bd 19 3e 1d b3 12 be dc 15 6b 3d
       0.11702677 0.1501356 -0.14326139 0.057393894
000020 da 42 35 3e fb af 63 3e 7a c1 5d 3e ea 86 f3 bc
       0.17701283 0.222351 0.21655837 -0.029727418
000030 0b a6 b9 3d 3e e8 b8 bd a6 aa df 3b a3 ca 17 3d
       0.09064873 -0.09028672 0.006825763 0.037058484
000040 a3 fc 10 3e b5 11 d2 3d 84 5e 7f bc 72 df a1 3d
       0.14158873 0.102572836 -0.015586499 0.07903947
000050 50 2e 64 3e a4 2f 29 3e 93 4d 40 3c c4 37 36 3d
       0.22283292 0.1652208 0.011737245 0.044486776
000060 96 99 68 3d e2 72 95 3d 73 19 b8 bd 64 ea 99 bd
       0.056787096 0.07297303 -0.08989229 -0.075154096
000070 25 ce 04 3e 17 5a 84 3e 87 e9 a2 3d 35 42 c6 3d
       0.12969263 0.25849983 0.07954698 0.09680597
000080 7e af 34 3c e4 c3 b0 3d 96 83 2d 3e 5a 60 1f 3e
       0.011028169 0.08631113 0.16944727 0.15564099
000090 7f f8 f2 bd 0f 26 19 bd 69 6f 10 3e 4b 32 ea 3d
       -0.11863803 -0.03738981 0.14105 0.11435374
0000a0 c4 70 0a bd 85 71 fb bd d7 88 01 3e 62 e0 5d 3e
       -0.033798948 -0.122775115 0.12649857 0.21667627
0000b0 94 4c 80 3e cc d2 93 bd 7d ef b8 3d 6e ab 6c 3e
       0.25058424 -0.07217941 0.09030054 0.2311227
0000c0 fa 01 fc 3d c4 22 cd 3e f0 fc aa 3c 80 ef 97 3d
       0.123050645 0.40065587 0.020872563 0.07418728
0000d0 52 93 ec bc 03 13 af 3d fa a7 0e bd ec 8d cd 3d
       -0.028878842 0.08548548 -0.034828164 0.10036835
0000e0 82 92 24 be 21 ac 16 bd d9 8c 10 3e ac da a6 3d
       -0.16071513 -0.03678525 0.14116229 0.08147177
0000f0 fc 00 90 3d e6 b7 c8 3e c4 0f 35 3d 87 af 85 bd
       0.07031438 0.39202803 0.04420449 -0.0652762
000100 29 27 39 3d 94 b3 4e 3c 53 94 35 bd 16 9c 3f bd
       0.04520336 0.012616057 -0.044330906 -0.046779715
000110 f7 36 53 3e 7b c8 c3 bd 81 96 3f 3c ac 00 69 3d
       0.20626436 -0.09559723 0.011693598 0.056885406
000120 9f 49 73 bc 06 31 9a 3d f4 9f 49 3d 53 33 97 3d
       -0.014849096 0.07528882 0.04922481 0.07382836
000130 4a 77 90 3d 20 e0 88 bc 2f 02 b4 bd ac 5a 02 3e
       0.070540026 -0.016708434 -0.08789479 0.12729901
000140 09 31 0d bd 33 67 b6 3c c5 06 02 3e 32 61 f4 3c
       -0.03447059 0.022266006 0.12697895 0.029831503
000150 a0 75 0d 3e 6c 32 cb bd 97 30 6b bc 67 4b c4 3d
       0.13814402 -0.099217266 -0.014354846 0.09584694
000160 c1 d9 76 bd 4b 5f cd 3c 54 8a 02 be 82 46 44 3b
       -0.06026626 0.025069853 -0.1274808 0.0029949252
000170 2f 19 26 3d 7f a3 0e 3e 48 a2 9d bd 8e 1f 1b 3e
       0.04055136 0.13929556 -0.07696968 0.15148756
000180 da 1c 4a 3d 3f db 35 bd 57 d2 fd 3d 29 32 48 3e
       0.04934392 -0.044398542 0.12393635 0.19550385
000190 22 c4 21 bd 7c 72 d3 bd fc c9 c1 bd 55 96 b7 bc
       -0.039493687 -0.103245705 -0.094623536 -0.022410551
0001a0 ed 20 da 3d ac 41 42 3c 96 83 f1 3d 00 00 63 3b
       0.10650811 0.011856478 0.11792676 0.0034637451
0001b0 fb 91 47 3e 15 77 7a bd 49 d6 31 bd 50 9b d6 3d
       0.19489281 -0.06114872 -0.04341725 0.10478842
0001c0 46 76 fe 3c 34 ab 04 3e 4f 69 7b 3d e4 f8 2a 3d
       0.031062257 0.12955934 0.061379727 0.041741267
0001d0 53 23 93 bd 9f 8f fa bd fc 84 f7 3d 9c 7b 93 3d
       -0.07184472 -0.12234425 0.12085912 0.07201311
0001e0 d2 73 b8 3c 2d 14 86 3d 2d 27 2f bd c4 8d 9c bc
       0.022516165 0.06546817 -0.04276197 -0.019110568
0001f0 e5 85 3d 3c a8 49 2a 3e bf 52 93 bd 25 b7 d3 3c
       0.0115675675 0.1662966 -0.07193517 0.025844166
000200 25 65 1f 3d 60 1c 76 3d 17 5a e9 bc 5b c0 fe 3d
       0.03891482 0.060085654 -0.028485341 0.12439033
000210 bc 8f a2 3a 79 c2 00 3e 8c 98 26 3d 63 0d 24 be
       0.0012402455 0.12574185 0.040672824 -0.16020732
000220 27 84 8d bd 32 30 ae bc 35 e0 02 be 4e 49 64 bd
       -0.06909972 -0.021263216 -0.1278084 -0.05573397
000230 29 d1 04 be 08 b9 34 bd 00 94 97 3d 40 e3 ed bd
       -0.12970413 -0.044121772 0.07401276 -0.1161561
000240 60 6e 2c 3d bb 1c 9a bd 05 59 68 bd b1 62 35 3e
       0.04209745 -0.07525011 -0.05672552 0.17713429
000250 25 f3 15 bd ca eb b4 bc 3e ee 70 bd f2 86 36 3d
       -0.036608834 -0.02208509 -0.058820955 0.044562288
000260 be 25 03 be 71 ef b7 3d c7 7a d6 3d 2f e1 de 3c
       -0.12807366 0.08981217 0.10472637 0.027206985
000270 bc 7d 12 3e 13 df 00 3d b4 1d b8 bd f8 63 19 3e
       0.14305776 0.03146274 -0.089900404 0.14979541
000280 e8 da 03 3e f8 c8 e7 bd c8 96 fc 3d ad 76 0a bd
       0.12876475 -0.113176286 0.12333447 -0.033804584
000290 d0 2a e8 bc 2d 61 0c bc 64 3a 82 bc 7b a3 d5 3d
       -0.028340727 -0.00856809 -0.015896983 0.10431572
0002a0 5e 12 d7 bd dd 18 bc bd d0 ea dc bd 8c 0f 36 3d
       -0.1050155 -0.0918443 -0.107869744 0.04444842
0002b0 12 df 30 be 2f b0 d5 3d db c7 08 be d6 bb a7 bd
       -0.17272595 0.10433995 -0.13357489 -0.08190124
0002c0 64 9c 2b bc 73 ad a7 3d fe db 11 3e e8 fb 82 3c
       -0.010474298 0.0818738 0.14244077 0.015989259
0002d0 19 d0 ab 3c 1d b1 0a 3e 41 34 07 3d 9b 54 81 3d
       0.020973252 0.13544126 0.033008818 0.06314965
0002e0 f7 63 b8 3d eb c8 b2 3d 8b 7b d8 3d 71 30 cb bd
       0.09003442 0.08729728 0.10570439 -0.09921349
0002f0 ca bc 00 be 99 11 3f 3d 84 6e 3e 3c ff 84 cf 3d
       -0.12572017 0.04664764 0.011623029 0.10132789
000300 71 a5 13 3e 6f d5 14 3e 8f 7a 35 3e 2a 5d 83 bd
       0.1441858 0.14534543 0.17722534 -0.06414254
000310 52 11 e5 3d 9f c8 0c 3e fa af a1 bd bd 14 13 3c
       0.11184944 0.13748406 -0.07894893 0.008977112
000320 b4 73 8a 3e 2a df 91 3d 3a a2 11 3e db 78 c4 bc
       0.270414 0.07122643 0.14222041 -0.02398341
000330 89 60 42 3e ef e7 ce bd 70 eb 58 3d b4 b1 5f 3e
       0.18982138 -0.101028316 0.052958906 0.21845132
000340 c9 c2 4f 3e fb b5 aa 3e a2 80 e5 3d cc f8 36 3e
       0.20289148 0.33341965 0.112061754 0.17868346
000350 4b 25 fd 3d 08 7a 03 3e 00 bd 23 3e f7 56 20 3e
       0.12360629 0.1283952 0.15990067 0.15658174
000360 85 e0 96 bc 2c df ad bd f0 e4 98 3d 54 f2 3d bd
       -0.018417606 -0.08489832 0.07465541 -0.04637368
000370 89 91 a0 3d 23 e2 a1 3e 9f 41 4e 3e 4d 1e 34 3e
       0.07840259 0.3161784 0.2014222 0.17589684
000380 a5 81 93 3d 1f e4 f7 3d 9e 63 46 3e f4 b3 87 3d
       0.07202462 0.121040575 0.19373938 0.0662612
000390 d3 8b c8 bd 69 95 92 bd 4f bd 91 3e 2d c8 46 bd
       -0.09792294 -0.07157404 0.28464743 -0.048530746
0003a0 58 d0 c0 3d 22 84 b9 3c ae 52 04 3e 9b 7e 8d 3e
       0.094147384 0.022646014 0.12922165 0.27635655
0003b0 41 5b 37 3d 8c 80 aa 3d 71 b5 e7 bc 2a 28 87 3e
       0.04476476 0.083252996 -0.02828476 0.2639783
0003c0 06 2a 11 bd 0d 02 88 3e 5c 4e 8d 3e 55 a2 4d 3e
       -0.035440467 0.26564065 0.27598846 0.20081456
0003d0 7f 54 e3 bd 75 e0 1a 3e eb 34 05 3e 99 12 e0 3d
       -0.11100101 0.15124686 0.13008468 0.10941047
0003e0 f6 45 a1 3d a2 35 44 3e c5 0a 65 3d 13 1e 0c bd
       0.07874672 0.19161084 0.055918474 -0.03420837
0003f0 5a b6 dd 3d c2 77 a2 3e 38 87 e3 bd 74 67 e1 3d
       0.108257964 0.31731993 -0.11109775 0.1100606
